subs/ai/src/main/assets/mnist.tflite (tflite, 115896 bytes, 6 tensors)

sequential_1/dense_1/BiasAdd/ReadVariableOp f4 [10]
000000 74 61 46 3d 2d 0d 41 3e b7 22 a1 bd 97 76 80 bd
       0.048432782 0.18852682 -0.078679495 -0.06272619
000010 29 25 47 bd c7 6c f7 bc 47 5e 45 3d 67 09 8e bb
       -0.048619423 -0.030203236 0.048185613 -0.004334617
000020 35 ce c2 bd 59 a9 c2 3d
       -0.09511987 0.09504957

sequential_1/conv2d_2/BiasAdd/ReadVariableOp f4 [32]
000000 38 71 f2 bb 40 2e 18 bd 31 6d a9 bc 65 2b 08 bc
       -0.0073987506 -0.037153482 -0.02068195 -0.008311127
000010 27 34 09 bc af 49 cc bb 62 63 c6 bb 14 7c f4 bc
       -0.0083742505 -0.0062343697 -0.006054328 -0.029844321
000020 b3 f0 c6 bc ce 6d e8 b8 e9 99 91 3d 21 fa 02 bc
       -0.024284696 -0.00011083075 0.07109434 -0.007994206
000030 76 86 50 bc bc 09 3a bc 43 b2 fe 3d 4c 29 c0 ba
       -0.0127273705 -0.01135486 0.124363445 -0.0014660745
000040 79 bb 7b bb ba b1 bc 3b f9 22 9f bd 27 3a 54 bb
       -0.0038411303 0.0057584913 -0.077703424 -0.0032383294
000050 a2 78 3a bc 46 0a 54 3d d2 d1 a6 bc 2c cf a7 bb
       -0.0113813 0.05176761 -0.020363722 -0.0051211324
000060 8c ae 42 3b b4 6a 52 3c f5 12 8d bc 0c 30 03 bc
       0.0029706089 0.012842823 -0.017220953 -0.008007061
000070 61 73 a5 bb cc 85 ee 3d c0 72 81 bb c8 02 8e ba
       -0.0050491546 0.116466135 -0.003950447 -0.0010834569

sequential_1/conv2d_3/BiasAdd/ReadVariableOp f4 [64]
000000 b3 2b 9f bc ee 94 b9 3c 34 ab 67 bd 02 8d 42 bd
       -0.019430017 0.022654023 -0.056559756 -0.047497757
000010 8e 65 5f bd 6f 62 5c bc 59 ed 31 3d f0 59 c4 bb
       -0.05454021 -0.013451203 0.043439243 -0.0059921667
000020 74 1c 00 bd 42 46 09 3d 9b c1 07 bd 9b 80 cd 3c
       -0.031277135 0.03351427 -0.03314362 0.025085738
000030 3b da 93 bd 9d 77 3a 3c 13 ca 70 bd 3e 85 98 3d
       -0.072193585 0.011381057 -0.058786463 0.07447289
000040 31 6b 70 bc 6a 79 2a 3d 64 f0 6b 3c b7 48 51 bc
       -0.014673994 0.041619696 0.014400575 -0.012773684
000050 4a 1d 42 bb f1 1b 40 bc 70 81 6f 3a 9d eb 82 3d
       -0.0029619508 -0.011725412 0.0009136414 0.06392596
000060 9b be 41 3d 17 3a ce bc 53 a9 86 bd 81 75 70 bd
       0.047300916 -0.025174184 -0.06575265 -0.05870581
000070 f6 d7 19 bd 8a 1d f7 bb 22 ba cd bc a8 66 e1 ba
       -0.037559472 -0.007541363 -0.02511317 -0.0017196732
000080 60 87 f0 3c 65 62 7d bc df 7e 3b bd a2 7f a1 bd
       0.029361427 -0.015465354 -0.04577529 -0.07885672
000090 97 f6 1a 3d 69 2d 22 bd ed 3b 56 3d e7 3e 3c 3d
       0.037832823 -0.039594088 0.052303243 0.045958426
0000a0 48 05 84 bc 02 f5 a9 3c f3 9d 5b 3d 74 5c 9a bc
       -0.0161158 0.020746712 0.05361743 -0.018842913
0000b0 35 83 2e bc fa 29 5d 3d d4 77 04 3d 3d f7 cf bc
       -0.010651399 0.05399511 0.03234084 -0.025386447
0000c0 2a df d2 bc e8 1e b0 bd bf 2e 53 bc 57 08 ac bd
       -0.025741179 -0.08599645 -0.012889563 -0.08400028
0000d0 fe 98 20 bd 08 4d 80 3a 37 64 a6 bc 20 c5 e5 3b
       -0.039208405 0.0009788582 -0.020311458 0.0070120245
0000e0 3e c1 5f bd 07 6d ce bc 69 66 15 bd 9f 9c ef 3a
       -0.05462765 -0.025198473 -0.03647462 0.001828093
0000f0 c8 2a c4 bd a1 47 56 bd a6 e6 96 3d 07 a6 22 3d
       -0.095784724 -0.052314404 0.073682114 0.039709117

sequential_1/conv2d_2/Conv2D f4 [32, 3, 3, 1]
000000 67 93 d8 3d 7a 81 83 be 4b 2a c0 be f6 54 1a 3c
       0.1057499 -0.2568472 -0.37532267 0.00941967
000010 c7 05 9d bc 50 38 10 bc 7b b6 fb 3d 1e 4e 78 3e
       -0.019167794 -0.008802488 0.12290665 0.2424855
000020 d0 6e 84 3e 95 3e 27 3c 69 aa 53 3e 21 d6 51 3e
       0.25865793 0.010207792 0.20670475 0.2049184
000030 5a 75 44 3e 7a cd 6e 3e ba 53 f6 bd d4 3e 8d 3d
       0.19185391 0.2332057 -0.12027688 0.06896749
000040 2c 46 9c be 8a dc c8 be 65 37 8d bd 69 34 ef 3d
       -0.30522287 -0.39230758 -0.06895331 0.11679918
000050 2f 9a 80 3e 62 05 a9 bd 78 f5 2b 3e 52 be 93 3d
       0.25117633 -0.0825298 0.16792858 0.07214035
000060 9f 61 b5 3d f5 da 20 be 94 c8 97 be d5 b3 e5 3d
       0.0885651 -0.15708525 -0.29645216 0.11215941
000070 78 56 52 be fc 20 b3 be 7a a7 22 3e a1 91 ee 3d
       -0.20540798 -0.34986103 0.158842 0.1164887
000080 d1 13 62 be 84 60 e9 3d 6e 13 64 3e c5 c1 55 3e
       -0.22077872 0.11395362 0.22273037 0.20874698
000090 66 8d 15 bf 00 6e a4 be ab a5 90 be 6c 7f 78 be
       -0.5841888 -0.32115173 -0.28251395 -0.24267358
0000a0 06 3f 6e bc dc 50 cf 3d d6 b6 1c 3e 3e 9c b9 3e
       -0.014541393 0.101228446 0.15304121 0.36252016
0000b0 8f 6f c8 3e f8 31 b3 be e1 9e 08 be 13 4d 84 3c
       0.39147612 -0.3499906 -0.13341857 0.016150033
0000c0 1c 94 2e be 48 d2 67 bd ec 0c e4 3d ac 5f 82 bd
       -0.17048687 -0.056597024 0.11135277 -0.06365904
0000d0 d8 a5 75 3e e4 80 d5 3e f1 44 f3 be 83 be d5 bd
       0.23989046 0.41699898 -0.47513536 -0.10436728
0000e0 dd 5c 8b 3e 7e 62 b4 be ba 81 9a 3d 66 77 67 3e
       0.27219287 -0.35231394 0.07544275 0.2260414
0000f0 4c fb cc bd 21 5c 62 3e 2a 83 9e 3e b6 37 6e 3e
       -0.100088686 0.22105457 0.30959445 0.2326344
000100 85 dd 0c 3e 60 53 2f 3e d2 6f ed 3d f9 7f 88 be
       0.13756378 0.17121649 0.11593594 -0.26660135
000110 a4 f1 34 be 6d 85 6f 3e ec f5 be bd 89 42 40 3e
       -0.17670304 0.23390742 -0.093242496 0.18775381
000120 b7 69 07 bf 3d 4c 73 be a3 49 73 bb 43 97 0d be
       -0.52895683 -0.23759551 -0.0037122748 -0.13827233
000130 78 d6 8b 3e 65 57 6b 3e 0a 82 99 3e ee e2 7e 3e
       0.27312064 0.22982557 0.29982024 0.24891254
000140 70 f3 5e bd 57 37 ac 3e f5 9d f0 3c ab b8 bb 3d
       -0.05443138 0.3363597 0.029372195 0.09166082
000150 2e c7 a6 3e 9a 8c 52 bd 60 1b a4 be 78 c2 7a 3e
       0.32573837 -0.05140362 -0.32052135 0.24488246
000160 3c ea 01 bd 19 dd 00 bf dd 9b 8b 3e ec f3 c7 3c
       -0.031717524 -0.5033737 0.27267352 0.024408303
000170 53 38 d6 be 50 0b 5b be 4b 8b 19 bf 5f 13 04 3e
       -0.41839847 -0.21391034 -0.5997817 0.12898014
000180 b7 27 0f bf cc 44 ad 3d e3 39 a4 3e 96 db 8e bd
       -0.55919975 0.084603876 0.32075414 -0.069754764
000190 36 fd 85 3e c1 f4 a1 3e 22 67 7e bd 8e f3 10 bc
       0.26169747 0.31632045 -0.062110074 -0.00884713
0001a0 07 36 b0 bd c3 13 9b 3d 70 53 08 be 09 aa a7 be
       -0.08604055 0.075721286 -0.13313079 -0.32746914
0001b0 45 12 5c bd 24 a9 88 3d e7 65 5f bd 0c ed 2d be
       -0.05372836 0.06672886 -0.05454054 -0.16984957
0001c0 e0 2b 97 bd 1e 12 30 be 23 f0 dd 3e 9d 25 31 3e
       -0.07381415 -0.17194411 0.43347272 0.17299505
0001d0 d5 ff fc 3d 30 40 d9 3b 38 25 44 bd cb 6f 66 3e
       0.123534836 0.006629966 -0.047887057 0.22503583
0001e0 18 06 8d 3d db c8 0c be ff 80 38 3c bc 94 92 3d
       0.06885928 -0.13748495 0.011261224 0.07157275
0001f0 ee 96 24 be b6 a9 47 3e 75 42 de bd 56 6a 30 be
       -0.160732 0.19498333 -0.108525194 -0.17228064
000200 43 03 5f bf 11 7a 69 3e 15 e1 4b 3e 6d c1 4f be
       -0.8711435 0.22800471 0.1991008 -0.2028863
000210 a0 e1 9d 3d 9a c2 0a be 5c 8c 0b bf c1 72 49 be
       0.0770905 -0.13550797 -0.54511046 -0.19672681
000220 f6 d3 87 3e 86 41 ab bd 7a c4 39 be be 2b a1 3e
       0.265289 -0.08362107 -0.18141356 0.31478685
000230 36 a0 24 be df e7 f3 bd 0a 43 5f 3e d4 1c e0 bd
       -0.1607674 -0.1190946 0.21802917 -0.109429985
000240 22 b2 8c 3e 10 63 eb b6 fb 57 11 be 1d 89 35 3d
       0.27479655 -7.015078e-06 -0.14193718 0.044320215
000250 b3 02 1d be 02 33 a9 be ce 82 c6 3e b0 5f 82 3e
       -0.15333061 -0.33046728 0.3877167 0.2546363
000260 48 76 34 be be c0 a8 3e ef f4 82 3e 1f f6 8a 3d
       -0.17623246 0.3295955 0.25577495 0.06785225
000270 d5 90 fa 3d 80 d6 58 bc 6e 3d 35 be e2 31 04 3e
       0.12234656 -0.013234735 -0.17699215 0.12909654
000280 6b 4a 06 be 46 93 e5 be b5 f5 16 3e 17 46 be ba
       -0.13114326 -0.44838923 0.14742167 -0.0014516738
000290 a0 45 39 3e 59 29 24 3d 7b cb 39 be 69 2e e6 3d
       0.18092966 0.040078495 -0.18144028 0.11239321
0002a0 3c 05 c0 3d 5e fb 98 3d 02 c0 4f 3e 6d f3 8a 3e
       0.093759984 0.074698195 0.20288089 0.27138844
0002b0 12 52 14 bc 06 e8 14 3e f6 ed b3 3d 14 e4 c8 bd
       -0.00905277 0.14541635 0.08785622 -0.098091274
0002c0 c2 06 52 be 2b fe 86 3e 5a 0e 04 3d 7c 83 ad be
       -0.2051039 0.2636579 0.03224025 -0.33889377
0002d0 cb 58 81 3e 53 b5 55 3e 93 3b d1 3d a0 6c 6f be
       0.25263056 0.20869951 0.10216441 -0.23381281
0002e0 0d 50 cf bd 95 5f 1d 3e 9e 0b 92 be 8a b6 1d be
       -0.1012269 0.15368493 -0.28524488 -0.15401664
0002f0 d9 84 88 bd c8 7e 9e 3e 30 02 03 3e f4 65 50 3e
       -0.06665964 0.309561 0.12793803 0.20351392
000300 d4 33 a0 bd 93 50 3a 3e 80 59 7a be 09 57 ee be
       -0.078223854 0.18194799 -0.24448204 -0.46550778
000310 c7 5b 9a be 50 5a 1f bf d2 78 38 3e 57 eb 44 3e
       -0.30148146 -0.6224718 0.1801484 0.192304
000320 14 11 14 3e bc 24 2e be 84 1c 82 3e 5f ec 05 3e
       0.1445964 -0.170062 0.2541238 0.1307845
000330 24 e2 05 bf 29 df 76 be 42 f5 a0 3d 20 18 91 be
       -0.5229819 -0.24108566 0.07859279 -0.28338718
000340 c6 0c 00 bd 86 da 72 3e 8f 1d 8b bd 47 9c 29 3e
       -0.03126218 0.23716173 -0.06792747 0.16563521
000350 b7 93 79 3c 36 d5 04 be 44 5c 4c 3e b7 13 4d be
       0.015232972 -0.12971959 0.19957072 -0.20027052
000360 5c 28 ac 3e 46 19 c3 bd 12 c3 b3 be 62 42 3c 3e
       0.33624542 -0.09526305 -0.35109764 0.18384698
000370 6f cb eb bd 70 9e a4 be b9 b1 ab 3e 78 2d 61 3e
       -0.11513411 -0.32152128 0.3353403 0.21990001
000380 3c e2 7c be 56 9f 12 3f da 61 01 3e 9b 43 89 be
       -0.24695677 0.5727438 0.12634984 -0.2680939
000390 45 09 7a 3e 1d 68 49 be e8 2d 1b bd 38 47 11 be
       0.24417599 -0.19668622 -0.037885576 -0.14187324
0003a0 e1 2c ac bd ee 7d 03 be 28 ff 2c 3e b2 cc 4c be
       -0.084069975 -0.12841007 0.1689421 -0.1999996
0003b0 67 5f df be fe 6c 52 3c a0 4c 0d 3e 74 b5 01 bd
       -0.43627474 0.012843369 0.13798761 -0.031667188
0003c0 52 8d d0 3d f6 8d 36 3e aa f0 64 3e cf dd 64 3e
       0.10183205 0.17827591 0.22357431 0.22350238
0003d0 b6 57 28 3e f5 82 99 3d cb 89 96 3d 19 a8 c0 3d
       0.16439709 0.07495681 0.07350501 0.09407062
0003e0 1d 57 aa bd 1c 01 0f bd 70 8d 80 be 01 c8 c7 be
       -0.08317397 -0.034913167 -0.25107908 -0.39019778
0003f0 5b 53 82 3d ac 36 10 3d 3f 99 47 3e b9 fd 83 be
       0.06363555 0.03520839 0.19492052 -0.25779513

sequential_1/conv2d_3/Conv2D i1 [64, 3, 3, 32]
000000 dd 0e 07 d2 df 25 33 02 43 07 c1 f4 fa 03 f0 29
       -35 14 7 -46 -33 37 51 2 67 7 -63 -12 -6 3 -16 41
000010 06 13 0a 00 cf e9 c0 09 03 fc d6 06 be 98 de d4
       6 19 10 0 -49 -23 -64 9 3 -4 -42 6 -66 -104 -34 -44
000020 ce 1c 09 d9 0b f3 d1 08 f7 16 34 09 ef 07 a7 53
       -50 28 9 -39 11 -13 -47 8 -9 22 52 9 -17 7 -89 83
000030 f9 05 01 10 e9 03 e5 fa fd 0c d4 0a c5 aa c5 f3
       -7 5 1 16 -23 3 -27 -6 -3 12 -44 10 -59 -86 -59 -13
000040 f0 28 06 e3 57 1c 2b 14 11 25 24 06 fc 08 87 fc
       -16 40 6 -29 87 28 43 20 17 37 36 6 -4 8 -121 -4
000050 fb 27 04 04 0e 1b 00 ef fc 1d ed 13 0d a3 03 09
       -5 39 4 4 14 27 0 -17 -4 29 -19 19 13 -93 3 9
000060 0b f1 04 05 a3 fb f2 09 ec 09 9a e1 0c fd 12 22
       11 -15 4 5 -93 -5 -14 9 -20 9 -102 -31 12 -3 18 34
000070 12 0d 03 02 d9 c8 dd 0e 0f 08 f8 f3 ef d6 fc ce
       18 13 3 2 -39 -56 -35 14 15 8 -8 -13 -17 -42 -4 -50
000080 04 f1 eb 08 e9 f0 be f6 e8 09 f2 0b fb ea fe 2b
       4 -15 -21 8 -23 -16 -66 -10 -24 9 -14 11 -5 -22 -2 43
000090 10 fe ff 05 f1 09 df e4 06 f8 06 ec cc ed 16 12
       16 -2 -1 5 -15 9 -33 -28 6 -8 6 -20 -52 -19 22 18
0000a0 03 fd e8 00 16 1d 16 f5 1b f6 05 ff fc 06 db 08
       3 -3 -24 0 22 29 22 -11 27 -10 5 -1 -4 6 -37 8
0000b0 fc 09 fe ef 01 05 f5 f7 00 f6 09 0a fd df 1c f8
       -4 9 -2 -17 1 5 -11 -9 0 -10 9 10 -3 -33 28 -8
0000c0 0e b7 d8 17 c4 f0 c1 0a d5 02 8a a7 0a 12 f3 00
       14 -73 -40 23 -60 -16 -63 10 -43 2 -118 -89 10 18 -13 0
0000d0 02 de 03 02 f9 81 4c 03 18 01 1e d0 09 f5 0e b5
       2 -34 3 2 -7 -127 76 3 24 1 30 -48 9 -11 14 -75
0000e0 16 97 dd 1c e0 fc c8 0b f7 e3 b8 eb 0a 09 e1 00
       22 -105 -35 28 -32 -4 -56 11 -9 -29 -72 -21 10 9 -31 0
0000f0 15 c6 04 ff c1 93 dd ef 00 ed 1c a8 d8 0c 1d 89
       21 -58 4 -1 -63 -109 -35 -17 0 -19 28 -88 -40 12 29 -119

sequential_1/dense_1/MatMul i1 [10, 9216] scale=0.007215668 zero_point=0
000000 f9 f4 06 e2 d0 f8 f3 db 06 f4 df f8 02 08 f5 f9
       -0.050509676 -0.08658802 0.04329401 -0.21647003 -0.34635207 -0.057725344 -0.09380368 -0.26697972 0.04329401 -0.08658802 -0.23811704 -0.057725344 0.014431336 0.057725344 -0.07937235 -0.050509676
000010 ef fd 04 bb fd 0b 0a f6 08 00 02 17 ff e5 d2 d1
       -0.12266636 -0.021647004 0.028862672 -0.49788108 -0.021647004 0.07937235 0.07215668 -0.07215668 0.057725344 0.0 0.014431336 0.16596036 -0.007215668 -0.19482304 -0.3319207 -0.3391364
000020 04 d4 f0 f1 01 02 e9 0b fb 00 0c fe fe f6 f3 eb
       0.028862672 -0.3174894 -0.11545069 -0.10823502 0.007215668 0.014431336 -0.16596036 0.07937235 -0.03607834 0.0 0.08658802 -0.014431336 -0.014431336 -0.07215668 -0.09380368 -0.15152903
000030 00 f2 ec ff c5 d9 13 fa df f9 10 13 fa b4 f3 e6
       0.0 -0.10101935 -0.14431337 -0.007215668 -0.42572442 -0.28141105 0.13709769 -0.04329401 -0.23811704 -0.050509676 0.11545069 0.13709769 -0.04329401 -0.54839075 -0.09380368 -0.18760736
000040 ef f8 01 fd e8 fb f0 e5 07 e4 02 f2 16 07 f3 03
       -0.12266636 -0.057725344 0.007215668 -0.021647004 -0.17317604 -0.03607834 -0.11545069 -0.19482304 0.050509676 -0.2020387 0.014431336 -0.10101935 0.1587447 0.050509676 -0.09380368 0.021647004
000050 f0 03 0d d0 fe 0e 06 ed fc 03 05 0d ff df dc d7
       -0.11545069 0.021647004 0.09380368 -0.34635207 -0.014431336 0.10101935 0.04329401 -0.13709769 -0.028862672 0.021647004 0.03607834 0.09380368 -0.007215668 -0.23811704 -0.25976405 -0.29584238
000060 fc e4 f3 f0 ef f7 10 0f 02 ff fb 01 fd ee f3 f6
       -0.028862672 -0.2020387 -0.09380368 -0.11545069 -0.12266636 -0.06494101 0.11545069 0.10823502 0.014431336 -0.007215668 -0.03607834 0.007215668 -0.021647004 -0.12988202 -0.09380368 -0.07215668
000070 0b f0 f1 09 eb d6 ff f9 f5 f0 12 0b f9 da 09 f6
       0.07937235 -0.11545069 -0.10823502 0.06494101 -0.15152903 -0.30305806 -0.007215668 -0.050509676 -0.07937235 -0.11545069 0.12988202 0.07937235 -0.050509676 -0.27419537 0.06494101 -0.07215668
000080 fd 0b 02 e9 ee ff ed ef ff df f9 04 02 00 f1 06
       -0.021647004 0.07937235 0.014431336 -0.16596036 -0.12988202 -0.007215668 -0.13709769 -0.12266636 -0.007215668 -0.23811704 -0.050509676 0.028862672 0.014431336 0.0 -0.10823502 0.04329401
000090 f9 f4 00 c2 fd 19 0d f0 07 ff 06 08 fd e1 da d2
       -0.050509676 -0.08658802 0.0 -0.44737142 -0.021647004 0.1803917 0.09380368 -0.11545069 0.050509676 -0.007215668 0.04329401 0.057725344 -0.021647004 -0.22368571 -0.27419537 -0.3319207
0000a0 04 e1 fe fe ea 03 02 04 03 fc 09 04 01 f6 ff fb
       0.028862672 -0.22368571 -0.014431336 -0.014431336 -0.1587447 0.021647004 0.014431336 0.028862672 0.021647004 -0.028862672 0.06494101 0.028862672 0.007215668 -0.07215668 -0.007215668 -0.03607834
0000b0 18 07 f2 23 fb ce 09 fd fd fb 0d ff 06 f3 00 09
       0.17317604 0.050509676 -0.10101935 0.25254837 -0.03607834 -0.3607834 0.06494101 -0.021647004 -0.021647004 -0.03607834 0.09380368 -0.007215668 0.04329401 -0.09380368 0.0 0.06494101
0000c0 f2 fc 07 dc e7 f9 eb df ff de f6 0d 02 02 fd f8
       -0.10101935 -0.028862672 0.050509676 -0.25976405 -0.1803917 -0.050509676 -0.15152903 -0.23811704 -0.007215668 -0.24533272 -0.07215668 0.09380368 0.014431336 0.014431336 -0.021647004 -0.057725344
0000d0 f7 ef 13 cf fe 10 fc f9 fd fe 00 02 01 e1 d0 f2
       -0.06494101 -0.12266636 0.13709769 -0.35356772 -0.014431336 0.11545069 -0.028862672 -0.050509676 -0.021647004 -0.014431336 0.0 0.014431336 0.007215668 -0.22368571 -0.34635207 -0.10101935
0000e0 fb e6 f1 04 f7 ff fe 07 fc 01 10 03 01 f3 f5 fd
       -0.03607834 -0.18760736 -0.10823502 0.028862672 -0.06494101 -0.007215668 -0.014431336 0.050509676 -0.028862672 0.007215668 0.11545069 0.021647004 0.007215668 -0.09380368 -0.07937235 -0.021647004
0000f0 11 07 ee 20 f7 d8 07 f6 fb eb 01 fd fc ed f4 10
       0.12266636 0.050509676 -0.12988202 0.23090138 -0.06494101 -0.28862673 0.050509676 -0.07215668 -0.03607834 -0.15152903 0.007215668 -0.021647004 -0.028862672 -0.13709769 -0.08658802 0.11545069
